…
":{"base_uri":"https://localhost:8080/"},"executionInfo":{"status":"ok","timestamp":1727281064047,"user_tz":-120,"elapsed":267,"user":{"displayName":"Ehsan Yousefzadeh-Asl-Miandoab","userId":"17281448580367408501"}},"outputId":"35d2a487-c47a-4e2e-ffe7-3ecb9e421924"},"execution_count":23,"outputs":[{"output_type":"stream","name":"stdout","text":["4\n","----------------------------------------------------------------\n","        Layer (type)               Output Shape         Param #\n","================================================================\n","            Linear-1                    [-1, 4]              20\n","       BatchNorm1d-2                    [-1, 4]               8\n","              ReLU-3                    [-1, 4]               0\n","           Dropout-4                    [-1, 4]               0\n","            Linear-5                    [-1, 4]              20\n","       BatchNorm1d-6                    [-1, 4]               8\n","              ReLU-7                    [-1, 4]               0\n","           Dropout-8                    [-1, 4]               0\n","            Linear-9                    [-1, 4]              20\n","      BatchNorm1d-10                    [-1, 4]               8\n","             ReLU-11                    [-1, 4]               0\n","          Dropout-12                    [-1, 4]               0\n","           Linear-13                    [-1, 4]              20\n","      BatchNorm1d-14                    [-1, 4]               8\n","             ReLU-15                    [-1, 4]               0\n","          Dropout-16                    [-1, 4]               0\n","           Linear-17                    [-1, 4]              20\n","          FC_base-18                    [-1, 4]               0\n","================================================================\n","Total params: 132\n","Trainable params: 132\n","Non-trainable params: 0\n","----------------------------------------------------------------\n","Input size (MB): 0.00\n","Forward/backward pass size (MB): 0.00\n","Params size (MB): 0.00\n","Estimated Total Size (MB): 0.00\n","--------------------------------------------------
…
